…
2019-08-22 23:19:40.445563: I tensorflow/core/common_runtime/gpu/gpu_device.cc:1115] Created TensorFlow device (/job:localhost/replica:0/task:0/device:GPU:2 with 6647 MB memory) -> physical GPU (device: 2, name: GeForce RTX 2080, pci bus id: 0000:83:00.0, compute capability: 7.5)
__________________________________________________________________________________________________
Layer (type)                    Output Shape         Param #     Connected to                     
==================================================================================================
Input-Token (InputLayer)        (None, 100)          0                                            
__________________________________________________________________________________________________
Input-Segment (InputLayer)      (None, 100)          0                                            
__________________________________________________________________________________________________
Embedding-Token (TokenEmbedding [(None, 100, 768), ( 16226304    Input-Token[0][0]                
__________________________________________________________________________________________________
Embedding-Segment (Embedding)   (None, 100, 768)     1536        Input-Segment[0][0]              
__________________________________________________________________________________________________
Embedding-Token-Segment (Add)   (None, 100, 768)     0           Embedding-Token[0][0]            
                                                                 Embedding-Segment[0][0]          
__________________________________________________________________________________________________
Embedding-Position (PositionEmb (None, 100, 768)     76800       Embedding-Token-Segment[0][0]    
__________________________________________________________________________________________________
Embedding-Dropout (Dropout)     (None, 100, 768)     0           Embedding-Position[0][0]         
__________________________________________________________________________________________________
Embedding-Norm (LayerNormalizat (None, 100, 768)     1536        Embedding-Dropout[0][0]          
__________________________________________________________________________________________________
Encoder-1-MultiHeadSelfAttentio (None, 100, 768)     2362368     Embedding-Norm[0][0]             
__________________________________________________________________________________________________
Encoder-1-MultiHeadSelfAttentio (None, 100, 768)     0           Encoder-1-MultiHeadSelfAttention[
__________________________________________________________________________________________________
Encoder-1-MultiHeadSelfAttentio (None, 100, 768)     11527       Encoder-1-MultiHeadSelfAttention-
__________________________________________________________________________________________________
Encoder-1-MultiHeadSelfAttentio (None, 100, 768)     0           Encoder-1-MultiHeadSelfAttention-
                                                                 Encoder-1-MultiHeadSelfAttention-
__________________________________________________________________________________________________
Encoder-1-MultiHeadSelfAttentio (None, 100, 768)     0           Embedding-Norm[0][0]             
                                                                 Encoder-1-MultiHeadSelfAttention-
__________________________________________________________________________________________________
Encoder-1-MultiHeadSelfAttentio (None, 100, 768)     1536        Encoder-1-MultiHeadSelfAttention-
__________________________________________________________________________________________________
Encoder-1-FeedForward (FeedForw (None, 100, 768)     4722432     Encoder-1-MultiHeadSelfAttention-
__________________________________________________________________________________________________
Encoder-1-FeedForward-Dropout ( (None, 100, 768)     0           Encoder-1-FeedForward[0][0]      
__________________________________________________________________________________________________
Encoder-1-FeedForward-Adapter ( (None, 100, 768)     11527       Encoder-1-FeedForward-Dropout[0][
__________________________________________________________________________________________________
Encoder-1-FeedForward-Adapter-A (None, 100, 768)     0           Encoder-1-FeedForward-Dropout[0][
                                                                 Encoder-1-FeedForward-Adapter[0][
__________________________________________________________________________________________________
Encoder-1-FeedForward-Add (Add) (None, 100, 768)     0           Encoder-1-MultiHeadSelfAttention-
                                                                 Encoder-1-FeedForward-Adapter-Add
__________________________________________________________________________________________________
Encoder-1-FeedForward-Norm (Lay (None, 100, 768)     1536        Encoder-1-FeedForward-Add[0][0]  
__________________________________________________________________________________________________
Encoder-2-MultiHeadSelfAttentio (None, 100, 768)     2362368     Encoder-1-FeedForward-Norm[0][0] 
__________________________________________________________________________________________________
Encoder-2-MultiHeadSelfAttentio (None, 100, 768)     0           Encoder-2-MultiHeadSelfAttention[
__________________________________________________________________________________________________
Encoder-2-MultiHeadSelfAttentio (None, 100, 768)     11527       Encoder-2-MultiHeadSelfAttention-
__________________________________________________________________________________________________
Encoder-2-MultiHeadSelfAttentio (None, 100, 768)     0           Encoder-2-MultiHeadSelfAttention-
                                                                 Encoder-2-MultiHeadSelfAttention-
__________________________________________________________________________________________________
Encoder-2-MultiHeadSelfAttentio (None, 100, 768)     0           Encoder-1-FeedForward-Norm[0][0] 
                                                                 Encoder-2-MultiHeadSelfAttention-
__________________________________________________________________________________________________
Encoder-2-MultiHeadSelfAttentio (None, 100, 768)     1536        Encoder-2-MultiHeadSelfAttention-
__________________________________________________________________________________________________
Encoder-2-FeedForward (FeedForw (None, 100, 768)     4722432     Encoder-2-MultiHeadSelfAttention-
__________________________________________________________________________________________________
Encoder-2-FeedForward-Dropout ( (None, 100, 768)     0           Encoder-2-FeedForward[0][0]      
__________________________________________________________________________________________________
Encoder-2-FeedForward-Adapter ( (None, 100, 768)     11527       Encoder-2-FeedForward-Dropout[0][
__________________________________________________________________________________________________
Encoder-2-FeedForward-Adapter-A (None, 100, 768)     0           Encoder-2-FeedForward-Dropout[0][
                                                                 Encoder-2-FeedForward-Adapter[0][
__________________________________________________________________________________________________
Encoder-2-FeedForward-Add (Add) (None, 100, 768)     0           Encoder-2-MultiHeadSelfAttention-
                                                                 Encoder-2-FeedForward-Adapter-Add
__________________________________________________________________________________________________
Encoder-2-FeedForward-Norm (Lay (None, 100, 768)     1536        Encoder-2-FeedForward-Add[0][0]  
__________________________________________________________________________________________________
Encoder-3-MultiHeadSelfAttentio (None, 100, 768)     2362368     Encoder-2-FeedForward-Norm[0][0] 
__________________________________________________________________________________________________
Encoder-3-MultiHeadSelfAttentio (None, 100, 768)     0           Encoder-3-MultiHeadSelfAttention[
__________________________________________________________________________________________________
Encoder-3-MultiHeadSelfAttentio (None, 100, 768)     11527       Encoder-3-MultiHeadSelfAttention-
__________________________________________________________________________________________________
Encoder-3-MultiHeadSelfAttentio (None, 100, 768)     0           Encoder-3-MultiHeadSelfAttention-
                                                                 Encoder-3-MultiHeadSelfAttention-
__________________________________________________________________________________________________
Encoder-3-MultiHeadSelfAttentio (None, 100, 768)     0           Encoder-2-FeedForward-Norm[0][0] 
                                                                 Encoder-3-MultiHeadSelfAttention-
__________________________________________________________________________________________________
Encoder-3-MultiHeadSelfAttentio (None, 100, 768)     1536        Encoder-3-MultiHeadSelfAttention-
__________________________________________________________________________________________________
Encoder-3-FeedForward (FeedForw (None, 100, 768)     4722432     Encoder-3-MultiHeadSelfAttention-
__________________________________________________________________________________________________
Encoder-3-FeedForward-Dropout ( (None, 100, 768)     0           Encoder-3-FeedForward[0][0]      
__________________________________________________________________________________________________
Encoder-3-FeedForward-Adapter ( (None, 100, 768)     11527       Encoder-3-FeedForward-Dropout[0][
__________________________________________________________________________________________________
Encoder-3-FeedForward-Adapter-A (None, 100, 768)     0           Encoder-3-FeedForward-Dropout[0][
                                                                 Encoder-3-FeedForward-Adapter[0][
__________________________________________________________________________________________________
Encoder-3-FeedForward-Add (Add) (None, 100, 768)     0           Encoder-3-MultiHeadSelfAttention-
                                                                 Encoder-3-FeedForward-Adapter-Add
__________________________________________________________________________________________________
Encoder-3-FeedForward-Norm (Lay (None, 100, 768)     1536        Encoder-3-FeedForward-Add[0][0]  
__________________________________________________________________________________________________
Encoder-4-MultiHeadSelfAttentio (None, 100, 768)     2362368     Encoder-3-FeedForward-Norm[0][0] 
__________________________________________________________________________________________________
Encoder-4-MultiHeadSelfAttentio (None, 100, 768)     0           Encoder-4-MultiHeadSelfAttention[
__________________________________________________________________________________________________
Encoder-4-MultiHeadSelfAttentio (None, 100, 768)     11527       Encoder-4-MultiHeadSelfAttention-
__________________________________________________________________________________________________
Encoder-4-MultiHeadSelfAttentio (None, 100, 768)     0           Encoder-4-MultiHeadSelfAttention-
                                                                 Encoder-4-MultiHeadSelfAttention-
__________________________________________________________________________________________________
Encoder-4-MultiHeadSelfAttentio (None, 100, 768)     0           Encoder-3-FeedForward-Norm[0][0] 
                                                                 Encoder-4-MultiHeadSelfAttention-
__________________________________________________________________________________________________
Encoder-4-MultiHeadSelfAttentio (None, 100, 768)     1536        Encoder-4-MultiHeadSelfAttention-
__________________________________________________________________________________________________
Encoder-4-FeedForward (FeedForw (None, 100, 768)     4722432     Encoder-4-MultiHeadSelfAttention-
__________________________________________________________________________________________________
Encoder-4-FeedForward-Dropout ( (None, 100, 768)     0           Encoder-4-FeedForward[0][0]      
__________________________________________________________________________________________________
Encoder-4-FeedForward-Adapter ( (None, 100, 768)     11527       Encoder-4-FeedForward-Dropout[0][
__________________________________________________________________________________________________
Encoder-4-FeedForward-Adapter-A (None, 100, 768)     0           Encoder-4-FeedForward-Dropout[0][
                                                                 Encoder-4-FeedForward-Adapter[0][
__________________________________________________________________________________________________
Encoder-4-FeedForward-Add (Add) (None, 100, 768)     0           Encoder-4-MultiHeadSelfAttention-
                                                                 Encoder-4-FeedForward-Adapter-Add
__________________________________________________________________________________________________
Encoder-4-FeedForward-Norm (Lay (None, 100, 768)     1536        Encoder-4-FeedForward-Add[0][0]  
__________________________________________________________________________________________________
Encoder-5-MultiHeadSelfAttentio (None, 100, 768)     2362368     Encoder-4-FeedForward-Norm[0][0] 
__________________________________________________________________________________________________
Encoder-5-MultiHeadSelfAttentio (None, 100, 768)     0           Encoder-5-MultiHeadSelfAttention[
__________________________________________________________________________________________________
Encoder-5-MultiHeadSelfAttentio (None, 100, 768)     11527       Encoder-5-MultiHeadSelfAttention-
__________________________________________________________________________________________________
Encoder-5-MultiHeadSelfAttentio (None, 100, 768)     0           Encoder-5-MultiHeadSelfAttention-
                                                                 Encoder-5-MultiHeadSelfAttention-
__________________________________________________________________________________________________
Encoder-5-MultiHeadSelfAttentio (None, 100, 768)     0           Encoder-4-FeedForward-Norm[0][0] 
                                                                 Encoder-5-MultiHeadSelfAttention-
__________________________________________________________________________________________________
Encoder-5-MultiHeadSelfAttentio (None, 100, 768)     1536        Encoder-5-MultiHeadSelfAttention-
__________________________________________________________________________________________________
Encoder-5-FeedForward (FeedForw (None, 100, 768)     4722432     Encoder-5-MultiHeadSelfAttention-
__________________________________________________________________________________________________
Encoder-5-FeedForward-Dropout ( (None, 100, 768)     0           Encoder-5-FeedForward[0][0]      
__________________________________________________________________________________________________
Encoder-5-FeedForward-Adapter ( (None, 100, 768)     11527       Encoder-5-FeedForward-Dropout[0][
__________________________________________________________________________________________________
Encoder-5-FeedForward-Adapter-A (None, 100, 768)     0           Encoder-5-FeedForward-Dropout[0][
                                                                 Encoder-5-FeedForward-Adapter[0][
__________________________________________________________________________________________________
Encoder-5-FeedForward-Add (Add) (None, 100, 768)     0           Encoder-5-MultiHeadSelfAttention-
                                                                 Encoder-5-FeedForward-Adapter-Add
__________________________________________________________________________________________________
Encoder-5-FeedForward-Norm (Lay (None, 100, 768)     1536        Encoder-5-FeedForward-Add[0][0]  
__________________________________________________________________________________________________
Encoder-6-MultiHeadSelfAttentio (None, 100, 768)     2362368     Encoder-5-FeedForward-Norm[0][0] 
__________________________________________________________________________________________________
Encoder-6-MultiHeadSelfAttentio (None, 100, 768)     0           Encoder-6-MultiHeadSelfAttention[
__________________________________________________________________________________________________
Encoder-6-MultiHeadSelfAttentio (None, 100, 768)     11527       Encoder-6-MultiHeadSelfAttention-
__________________________________________________________________________________________________
Encoder-6-MultiHeadSelfAttentio (None, 100, 768)     0           Encoder-6-MultiHeadSelfAttention-
                                                                 Encoder-6-MultiHeadSelfAttention-
__________________________________________________________________________________________________
Encoder-6-MultiHeadSelfAttentio (None, 100, 768)     0           Encoder-5-FeedForward-Norm[0][0] 
                                                                 Encoder-6-MultiHeadSelfAttention-
__________________________________________________________________________________________________
Encoder-6-MultiHeadSelfAttentio (None, 100, 768)     1536        Encoder-6-MultiHeadSelfAttention-
__________________________________________________________________________________________________
Encoder-6-FeedForward (FeedForw (None, 100, 768)     4722432     Encoder-6-MultiHeadSelfAttention-
__________________________________________________________________________________________________
Encoder-6-FeedForward-Dropout ( (None, 100, 768)     0           Encoder-6-FeedForward[0][0]      
__________________________________________________________________________________________________
Encoder-6-FeedForward-Adapter ( (None, 100, 768)     11527       Encoder-6-FeedForward-Dropout[0][
__________________________________________________________________________________________________
Encoder-6-FeedForward-Adapter-A (None, 100, 768)     0           Encoder-6-FeedForward-Dropout[0][
                                                                 Encoder-6-FeedForward-Adapter[0][
__________________________________________________________________________________________________
Encoder-6-FeedForward-Add (Add) (None, 100, 768)     0           Encoder-6-MultiHeadSelfAttention-
                                                                 Encoder-6-FeedForward-Adapter-Add
__________________________________________________________________________________________________
Encoder-6-FeedForward-Norm (Lay (None, 100, 768)     1536        Encoder-6-FeedForward-Add[0][0]  
__________________________________________________________________________________________________
Encoder-7-MultiHeadSelfAttentio (None, 100, 768)     2362368     Encoder-6-FeedForward-Norm[0][0] 
__________________________________________________________________________________________________
Encoder-7-MultiHeadSelfAttentio (None, 100, 768)     0           Encoder-7-MultiHeadSelfAttention[
__________________________________________________________________________________________________
Encoder-7-MultiHeadSelfAttentio (None, 100, 768)     11527       Encoder-7-MultiHeadSelfAttention-
__________________________________________________________________________________________________
Encoder-7-MultiHeadSelfAttentio (None, 100, 768)     0           Encoder-7-MultiHeadSelfAttention-
                                                                 Encoder-7-MultiHeadSelfAttention-
__________________________________________________________________________________________________
Encoder-7-MultiHeadSelfAttentio (None, 100, 768)     0           Encoder-6-FeedForward-Norm[0][0] 
                                                                 Encoder-7-MultiHeadSelfAttention-
__________________________________________________________________________________________________
Encoder-7-MultiHeadSelfAttentio (None, 100, 768)     1536        Encoder-7-MultiHeadSelfAttention-
__________________________________________________________________________________________________
Encoder-7-FeedForward (FeedForw (None, 100, 768)     4722432     Encoder-7-MultiHeadSelfAttention-
__________________________________________________________________________________________________
Encoder-7-FeedForward-Dropout ( (None, 100, 768)     0           Encoder-7-FeedForward[0][0]      
__________________________________________________________________________________________________
Encoder-7-FeedForward-Adapter ( (None, 100, 768)     11527       Encoder-7-FeedForward-Dropout[0][
__________________________________________________________________________________________________
Encoder-7-FeedForward-Adapter-A (None, 100, 768)     0           Encoder-7-FeedForward-Dropout[0][
                                                                 Encoder-7-FeedForward-Adapter[0][
__________________________________________________________________________________________________
Encoder-7-FeedForward-Add (Add) (None, 100, 768)     0           Encoder-7-MultiHeadSelfAttention-
                                                                 Encoder-7-FeedForward-Adapter-Add
__________________________________________________________________________________________________
Encoder-7-FeedForward-Norm (Lay (None, 100, 768)     1536        Encoder-7-FeedForward-Add[0][0]  
__________________________________________________________________________________________________
Encoder-8-MultiHeadSelfAttentio (None, 100, 768)     2362368     Encoder-7-FeedForward-Norm[0][0] 
__________________________________________________________________________________________________
Encoder-8-MultiHeadSelfAttentio (None, 100, 768)     0           Encoder-8-MultiHeadSelfAttention[
__________________________________________________________________________________________________
Encoder-8-MultiHeadSelfAttentio (None, 100, 768)     11527       Encoder-8-MultiHeadSelfAttention-
__________________________________________________________________________________________________
Encoder-8-MultiHeadSelfAttentio (None, 100, 768)     0           Encoder-8-MultiHeadSelfAttention-
                                                                 Encoder-8-MultiHeadSelfAttention-
__________________________________________________________________________________________________
Encoder-8-MultiHeadSelfAttentio (None, 100, 768)     0           Encoder-7-FeedForward-Norm[0][0] 
                                                                 Encoder-8-MultiHeadSelfAttention-
__________________________________________________________________________________________________
Encoder-8-MultiHeadSelfAttentio (None, 100, 768)     1536        Encoder-8-MultiHeadSelfAttention-
__________________________________________________________________________________________________
Encoder-8-FeedForward (FeedForw (None, 100, 768)     4722432     Encoder-8-MultiHeadSelfAttention-
__________________________________________________________________________________________________
Encoder-8-FeedForward-Dropout ( (None, 100, 768)     0           Encoder-8-FeedForward[0][0]      
__________________________________________________________________________________________________
Encoder-8-FeedForward-Adapter ( (None, 100, 768)     11527       Encoder-8-FeedForward-Dropout[0][
__________________________________________________________________________________________________
Encoder-8-FeedForward-Adapter-A (None, 100, 768)     0           Encoder-8-FeedForward-Dropout[0][
                                                                 Encoder-8-FeedForward-Adapter[0][
__________________________________________________________________________________________________
Encoder-8-FeedForward-Add (Add) (None, 100, 768)     0           Encoder-8-MultiHeadSelfAttention-
                                                                 Encoder-8-FeedForward-Adapter-Add
__________________________________________________________________________________________________
Input_Pos (InputLayer)          (None, 100)          0                                            
__________________________________________________________________________________________________
Encoder-8-FeedForward-Norm (Lay (None, 100, 768)     1536        Encoder-8-FeedForward-Add[0][0]  
__________________________________________________________________________________________________
pos_embeds (Embedding)          (None, 100, 64)      576         Input_Pos[0][0]                  
__________________________________________________________________________________________________
bidirectional_1 (Bidirectional) (None, 100, 128)     426496      Encoder-8-FeedForward-Norm[0][0] WARNING:tensorflow:From /home/env/anaconda3/envs/tensorflow/lib/python3.6/site-packages/tensorflow/python/ops/math_ops.py:3066: to_int32 (from tensorflow.python.ops.math_ops) is deprecated and will be removed in a future version.
Instructions for updating:
Use tf.cast instead.
WARNING:tensorflow:From /home/env/anaconda3/envs/tensorflow/lib/python3.6/site-packages/tensorflow/python/ops/math_grad.py:102: div (from tensorflow.python.ops.math_ops) is deprecated and will be removed in a future version.
Instructions for updating:
Deprecated in favor of operator or tf.math.divide.
2019-08-22 23:20:27.934865: I tensorflow/stream_executor/dso_loader.cc:152] successfully opened CUDA library libcublas.so.10.0 locally

__________________________________________________________________________________________________
bidirectional_2 (Bidirectional) (None, 100, 128)     66048       pos_embeds[0][0]                 
__________________________________________________________________________________________________
lambda_1 (Lambda)               (None, 100, 128)     0           bidirectional_1[0][0]            
__________________________________________________________________________________________________
lambda_2 (Lambda)               (None, 100, 128)     0           bidirectional_2[0][0]            
__________________________________________________________________________________________________
add_1 (Add)                     (None, 100, 128)     0           lambda_1[0][0]                   
                                                                 lambda_2[0][0]                   
__________________________________________________________________________________________________
dropout_1 (Dropout)             (None, 100, 128)     0           add_1[0][0]                      
__________________________________________________________________________________________________
time_distributed_1 (TimeDistrib (None, 100, 9)       1161        dropout_1[0][0]                  
__________________________________________________________________________________________________
crf_1 (CRF)                     (None, 100, 9)       189         time_distributed_1[0][0]         
==================================================================================================
Total params: 73,688,054
Trainable params: 703,478
Non-trainable params: 72,984,576
__________________________________________________________________________________________________
Train on 10193 samples, validate on 1133 samples
Epoch 1/50

   64/10193 [..............................] - ETA: 37:48 - loss: 1.9272 - crf_accuracy: 0.3008
…
